model/fc41c8a6-c897-463d-a217-12ad40dffd8a/model.pth (torch, 7302 bytes, 9 tensors)

weight_ih_l0 f4 [24, 9]
000000 86 ea b7 bd be bd 98 be bf 10 93 3d 57 37 08 3e
       -0.08980279 -0.29832262 0.071809284 0.1330236
000010 ef 90 7a be d8 77 f1 3d da ce 0b be aa 80 d4 3d
       -0.2446935 0.117904365 -0.13653126 0.10376103
000020 30 86 09 3e c0 d7 77 3e fe 16 b3 3c 80 46 3c 3e
       0.13430095 0.24203396 0.02186155 0.18386269
000030 fa 83 2a be 04 b2 94 3d 4a 7b 3c be 33 17 b5 bd
       -0.16651908 0.07260516 -0.18406406 -0.088423155
000040 42 78 bf 3c b7 65 f1 3d e1 0d 07 be 56 a9 cc bd
       0.023372773 0.11786979 -0.13188888 -0.09993236
000050 38 68 aa 3e f5 e8 85 bd 15 55 dc 3b 4e 26 50 3e
       0.33282638 -0.06538574 0.0067240098 0.20327112
000060 39 35 61 3e 5a 9c 49 3d b0 7c 2a be 8e 5c 0f be
       0.21992959 0.049221374 -0.16649127 -0.1400015
000070 2e 65 a1 be 7d b4 8d 3e 0b 7f 79 be e9 1c d7 3d
       -0.31522506 0.27676764 -0.2436487 0.10503561
000080 71 04 81 3e 0f 10 71 3e cc ae 13 be ab 57 5f be
       0.251987 0.23541282 -0.14422148 -0.21810786
000090 7f dd ae be d4 05 b2 bd 62 f1 7d be 9e ac 87 3d
       -0.34153363 -0.08692518 -0.24799111 0.06624721
0000a0 a0 a2 53 be 09 ff 9e 3d f4 a3 61 bd 97 2a 37 bd
       -0.20667505 0.07763488 -0.055088 -0.04471835
0000b0 0b e3 86 be 45 ec a8 bd d0 55 88 3d 53 f2 9f be
       -0.26345095 -0.0824819 0.066569924 -0.31239566
0000c0 43 d0 0b bb e3 19 33 be 21 11 85 be b8 3e 97 3d
       -0.002133385 -0.17490344 -0.2598963 0.073850095
0000d0 7b 6e 04 be 7c 9f 60 be d4 21 8e be cf 50 90 be
       -0.1293277 -0.21935838 -0.27760184 -0.28186652
0000e0 57 14 3b 3e 53 ef 9a be 03 85 8a be 88 ac a4 bd
       0.18269478 -0.30260715 -0.27054605 -0.0804072
0000f0 cc de bb 3b 09 e2 a4 b9 23 c2 6c 3e 5c 99 33 be
       0.0057333466 -0.00031448927 0.23120932 -0.1753897
000100 d8 46 3e be 95 fc 05 3e 31 57 42 3e 98 92 21 be
       -0.18581712 0.13084634 0.18978573 -0.15778577
000110 84 c4 9c be 79 98 fa 3d 40 f7 87 be 78 ca 69 3e
       -0.3061868 0.12236113 -0.26555824 0.22831142
000120 e5 34 9c 3d b3 c7 7e 3e 7a b6 10 be 34 95 f8 bd
       0.07627276 0.24880867 -0.1413211 -0.12137833
000130 b2 39 ab 3e 0d 60 08 be b6 be bf 3e ca 45 92 3e
       0.33442456 -0.1331789 0.37450188 0.2856887
000140 79 68 de 3d 29 c2 9c bd 49 7f c2 bd e0 60 c0 bd
       0.1085977 -0.076542206 -0.09496934 -0.093934774
000150 ea a0 99 be ce b6 6d bc 0e de 96 be 39 57 32 be
       -0.3000558 -0.014508916 -0.2946629 -0.17416085
000160 df 08 e5 3d e1 0a a4 3a 0a 08 a0 3e 15 04 1d 3e
       0.11183333 0.0012515449 0.31256133 0.15333588
000170 59 4c d1 3d 04 0d d0 bd df a5 d9 3d 87 ab 92 be
       0.1021964 -0.101587325 0.106273405 -0.2864649
000180 fb 7d 45 be 69 a9 a7 be 9c 07 23 bd 9c ae 1f be
       -0.19286339 -0.32746437 -0.03980218 -0.15593952
000190 c0 64 a6 3e 34 d4 f5 3d 21 ba 76 3d fd e6 e2 bc
       0.3249874 0.12003365 0.0602361 -0.027698034
0001a0 24 5a a1 3d bc 05 65 3e 22 14 8e 3e ce 71 93 be
       0.07878521 0.22365469 0.27749735 -0.28797764
0001b0 3a 07 61 be 26 bf 05 3e 0c 07 24 3d 96 83 8a 3e
       -0.21975413 0.13061199 0.040045783 0.27053517
0001c0 90 75 0c be f0 01 9b 3e b5 3b 1f be 6f d9 9f 3d
       -0.13716722 0.30274916 -0.1555012 0.07805144
0001d0 b8 02 a0 3e e1 dd 7e be f4 5e 36 be 59 68 19 3e
       0.31252074 -0.24889328 -0.17809659 0.14981212
0001e0 c0 6e 78 3e 9b 4a bd be 0c 16 26 bc 2b 00 8f be
       0.24260998 -0.36970982 -0.010137092 -0.27929816
0001f0 08 85 d6 3d 0c 0f 4b be 22 81 25 be da 3b 92 bd
       0.104745924 -0.19829959 -0.16162542 -0.07140322
000200 8c c8 42 bd 37 47 39 be 63 ba 92 3e cf 58 84 3e
       -0.047554538 -0.18093573 0.28657827 0.25849006
000210 4f 23 9a 3e 64 8a f6 3d f4 c8 8c be 04 27 cd 3b
       0.30105063 0.12038115 -0.27497065 0.0062607545
000220 00 ba 87 be a7 b1 a2 3e 99 79 6f be e7 1e 67 bd
       -0.26509094 0.31776163 -0.2338623 -0.056425955
000230 b4 de a3 be 35 c3 4e be 22 6f 24 3e 37 7d 28 bd
       -0.32005847 -0.20191653 0.16058019 -0.04113504
000240 ab ba 79 be 09 60 98 3d 13 55 9e 3e a2 00 00 3e
       -0.24387614 0.07440192 0.3092428 0.12500241
000250 34 9b 04 be e9 ad 8f 3d e7 b0 9a 3e 4f da 85 3e
       -0.1294983 0.070155926 0.3021309 0.2614312
000260 01 05 91 3e d6 32 82 be 1d 11 a0 be cd 0e 73 3d
       0.2832413 -0.2542941 -0.31263056 0.059340287
000270 76 dc 4c be 93 0c ab bd d6 06 85 be a9 be 13 3e
       -0.20005974 -0.08352008 -0.25981778 0.144282
000280 b0 99 6c bd 52 d7 91 be 5c 37 9b bc 6b 07 0c bd
       -0.057763755 -0.2848459 -0.018947296 -0.03418676
000290 f1 2b f3 3d b3 fa 0d be 09 23 f0 3c e8 a0 2d be
       0.118736155 -0.13865165 0.029313581 -0.16955912
0002a0 b2 13 ab 3d 6a bd ff 3d 97 a4 07 3e 68 8a 39 3d
       0.08353366 0.124873 0.1324638 0.04529801
0002b0 41 25 06 3d 7a 35 b6 be be bf d6 3d 37 52 27 3e
       0.03275037 -0.35587674 0.10485791 0.16339956
0002c0 c7 49 95 be 88 b8 82 be 33 25 71 be aa b8 4d 3e
       -0.2915785 -0.2553141 -0.23549347 0.20089975
0002d0 58 f8 a3 be ad ae 2f be 9b e8 2c 3e ca 1f 97 be
       -0.3202541 -0.17156477 0.16885607 -0.2951644
0002e0 1e b2 50 3e f7 b8 0d be ee b1 2e be 5e 8d 8d bc
       0.20380446 -0.1384009 -0.17060062 -0.017279323
0002f0 f8 13 04 3e ef e4 41 bd 0b c8 42 3e 5d 79 84 3e
       0.12898242 -0.04733747 0.19021623 0.25873843
000300 d6 65 b8 bd e6 68 80 be fc 2e 14 3e 52 67 01 be
       -0.09003799 -0.2508003 0.14471048 -0.1263707
000310 e4 fd bd 3d f6 5f bd be 07 86 94 bd f4 da 69 be
       0.092769414 -0.36987275 -0.07252126 -0.2283743
000320 00 ab 63 3d 2d d3 f4 3d e8 88 81 be ce 65 76 bb
       0.055583 0.11954341 -0.25299764 -0.0037597301
000330 a7 94 2f be 5a e8 54 bd aa 01 08 3e a5 01 24 3e
       -0.1714655 -0.0519794 0.13281885 0.16016252
000340 b7 f7 42 3e 1f 50 8d 3e 3a ad 09 be 37 51 bb 3e
       0.19039808 0.2760019 -0.13444987 0.365854
000350 1b 67 81 3e ba 81 e8 3c 65 66 d3 3d 1d ed ad 3e
       0.25273976 0.028382171 0.103222646 0.33969966

weight_hh_l0 f4 [24, 8]
000000 f7 b0 45 be 0c 24 7c 3e f8 76 67 3d 26 9c 93 be
       -0.19305788 0.24623126 0.05650994 -0.2883007
000010 e3 d2 4f 3e c0 73 b8 3d f8 65 85 3e 23 73 8c be
       0.2029529 0.090064526 0.26054358 -0.27431592
000020 fd 8b c8 3e 8a d5 ae be ff 92 8d bd cc a8 11 3e
       0.39169303 -0.34147292 -0.06912803 0.14224547
000030 76 bc 96 3e ab 48 45 be e8 f2 fb bd 80 99 01 3e
       0.2944066 -0.19266002 -0.1230219 0.12656212
000040 fe 62 fa bc b5 24 bf be 7a ba 65 3e 8f ca fd 3d
       -0.030564781 -0.37332693 0.22434416 0.123921506
000050 fe 85 b8 3d 17 1a 8d bd 63 13 8b 3e 87 3c 79 3d
       0.09009932 -0.06889742 0.27163228 0.06084874
000060 ec 85 bf bd 83 e2 6e 3e e9 78 aa 3e 74 fd c4 3e
       -0.093517154 0.23328595 0.33295372 0.3847462
000070 00 7b db bc 6b d0 a5 be 54 2f ad be ae 58 8f 3d
       -0.02679205 -0.32385573 -0.3382517 0.06999336
000080 01 ff 54 be 3b b1 69 be bb 8d df 3d 28 f3 7a be
       -0.20800401 -0.22821514 0.10915705 -0.24506819
000090 61 a5 67 3e b8 19 81 be 46 a0 dc 3d 5f a5 33 3d
       0.22621681 -0.25214934 0.10772757 0.043858882
0000a0 fb 06 69 be 20 a8 ea bc a1 f0 07 be 37 2d 88 bc
       -0.22756569 -0.028644621 -0.13275386 -0.016623123
0000b0 79 03 11 3e 59 27 25 be 5f 65 50 3e 19 97 8b be
       0.14161481 -0.16128291 0.2035117 -0.27263716
0000c0 91 b7 ac 3e 48 ac 6c 3e 62 84 ef bc 27 e2 29 be
       0.337338 0.23112595 -0.02923793 -0.16590177
0000d0 8e a1 b2 be 47 61 24 be 73 e4 b1 3e 60 2b 11 be
       -0.3488888 -0.16052733 0.34744605 -0.14176702
0000e0 2f 41 14 3e 21 c8 5f 3e c5 66 0d 3e bf 5e 90 3d
       0.1447799 0.21853687 0.13808735 0.070493214
0000f0 27 14 58 3e b2 52 d2 3b c2 f9 7c be ad 9a 40 3c
       0.21101438 0.0064185495 -0.2470465 0.011755628
000100 0e c0 81 bd 6d e5 04 3d b5 84 a5 bd 13 e9 42 3d
       -0.0633546 0.03244536 -0.080819525 0.04758556
000110 7f 32 82 3e 2f 79 90 3e 8d 94 ac 3c d0 48 3e bc
       0.2542915 0.28217456 0.021066928 -0.01161404
000120 81 a7 6f 3e 5f 2d c2 3d 4b 37 83 be 91 18 47 3d
       0.23403741 0.0948131 -0.25628123 0.048607413
000130 af a8 1f be c6 39 bc 3c 8b b5 19 3d dc 79 84 be
       -0.15591691 0.022976767 0.03752665 -0.2587422
000140 52 22 d8 bd 0b c7 94 be 55 4b a1 be e4 2e 01 be
       -0.10553421 -0.29058108 -0.31502786 -0.12615544
000150 58 ce b4 3e a5 a3 9b be d3 fc 96 bd 2a 84 97 bd
       0.35313678 -0.30398288 -0.07372441 -0.07398255
000160 89 80 a3 be 36 36 ba bd 2f 50 aa be 30 3c 83 be
       -0.31934002 -0.09092371 -0.332643 -0.25631857
000170 11 3b b1 3e 4b 5f a0 3e a6 9f 1e be 76 33 ad 3d
       0.34615377 0.31322703 -0.15490589 0.08457081
000180 40 f1 b5 be 61 f0 65 3e e1 88 5a be 63 03 c4 bd
       -0.35535622 0.22454979 -0.21341278 -0.095709585
000190 a3 72 ac 3e 48 df 20 3e d6 6f 26 be f6 be 45 3d
       0.3368121 0.15710175 -0.162536 0.048277818
0001a0 ef 84 4c 3e 18 55 f5 3c e6 8e 0c be c3 bb 70 be
       0.19972585 0.029947802 -0.13726386 -0.23509125
0001b0 e6 21 8f bd f3 46 82 bd 40 b0 a2 3d b0 6f 9c 3d
       -0.069888875 -0.06361189 0.07943773 0.0763849
0001c0 48 6d 23 3d 58 9c ad 3e 45 b7 4b 3e ee 68 8e be
       0.03989914 0.33908343 0.1989413 -0.2781443
0001d0 e7 be 69 be 84 c5 3a 3e ea b6 75 3e 0a 62 49 be
       -0.2282673 0.18239409 0.23995557 -0.19666305
0001e0 48 99 6a be dd 5d 84 be f5 a3 41 be c3 29 48 be
       -0.22910035 -0.25852862 -0.18910201 -0.19547181
0001f0 98 13 aa be 99 02 92 3e c7 d8 97 be 8d 24 7c 3e
       -0.33218074 0.28517607 -0.29657575 0.24623318
000200 08 9d e2 3d 56 a1 75 be ee fb ac 3d e0 21 32 3e
       0.110651076 -0.23987326 0.08446489 0.17395735
000210 7b 4c 96 bd 1d 54 16 be c8 2d 44 3e 0d 6e f3 bd
       -0.07338806 -0.14680524 0.19158089 -0.11886225
000220 29 57 a1 3d ea 45 0e be f0 7e 7b 3e e8 8a 81 bd
       0.078779526 -0.13893858 0.24560142 -0.063253224
000230 59 48 15 bd 19 e6 9c be 21 0e a7 be 9d 40 ea bd
       -0.03644595 -0.306443 -0.32627967 -0.11438105
000240 cd dc 85 3d be 56 a9 be 7c 43 cf bd 6b 39 8f be
       0.06536255 -0.33073992 -0.101202935 -0.27973494
000250 99 dd 54 3e 3c ea 03 be 73 1e 77 be 92 a8 f3 bd
       0.20787658 -0.12882322 -0.24132709 -0.118973866
000260 c9 83 97 be 2f f7 49 3e 28 29 cd 3d c3 19 3c 3e
       -0.29592732 0.197232 0.100176156 0.18369202
000270 c0 8b 56 be 33 0b a5 be 5d 65 95 3e d4 0b 51 3e
       -0.20951748 -0.32235107 0.29178897 0.20414668
000280 8f 01 1e be 57 00 8e 3c f7 d4 47 3e de 51 4d 3b
       -0.15430282 0.017334146 0.19514833 0.0031329314
000290 69 98 33 be aa 6e b1 3e 65 ae cc 3d 6f 24 6e 3d
       -0.17538609 0.34654742 0.099942006 0.058140215
0002a0 2a 91 36 3e 4b 18 b7 3e 0b 96 34 be 0b 21 48 be
       0.17828813 0.35760722 -0.17635362 -0.19543855
0002b0 93 89 e1 bd cf 67 02 be 5f 4e c7 3d 41 ce cb ba
       -0.11012568 -0.12734912 0.09731745 -0.0015549139
0002c0 12 1b c4 3d 23 ad 1f 3e e2 94 a4 3e c0 87 09 3e
       0.09575476 0.1559339 0.3214484 0.13430691
0002d0 80 be 3f 3d f6 78 06 be 0a 1b 9c 3e 22 cc 87 3d
       0.046812534 -0.1313208 0.3048938 0.06630732
0002e0 0d 1a 96 3e f0 4e bb be b1 16 a8 3e 96 d4 71 3d
       0.2931675 -0.36583662 0.32829812 0.05904063
0002f0 e7 bf ec bd 7d c3 3f 3e 7d 62 a9 3e 17 df 44 be
       -0.1156004 0.18726917 0.33082953 -0.19225727

bias_ih_l0 f4 [24]
000000 ab be 92 3c 30 b5 03 be c9 77 8d 3e 0a 44 73 be
       0.017913183 -0.12862086 0.2763045 -0.23756424
000010 d0 a0 89 3e c1 97 03 3e 4b 50 dd 3c 80 59 42 be
       0.26880503 0.12850858 0.027015826 -0.18979454
000020 dc cc 36 be 0d f8 a7 3e 08 04 99 3e e6 04 c2 bd
       -0.17851585 0.32806435 0.29885888 -0.094735906
000030 15 11 20 3e 25 03 da bd 75 55 a5 3d 6e 42 1a 3e
       0.15631516 -0.10645131 0.0807294 0.15064403
000040 f0 bb d8 3c 27 57 3d bd 91 98 7e be 2c 20 a0 bd
       0.026456803 -0.046225693 -0.24862887 -0.07818636
000050 08 69 03 be 69 44 87 3e ca 2c 26 3e 2e 85 c3 3e
       -0.12833035 0.2641938 0.16228023 0.38187546

bias_hh_l0 f4 [24]
000000 6b 56 b0 3d 92 b3 8d bd 10 ae a5 3e f4 5e 4e be
       0.08610233 -0.06919016 0.32359362 -0.20153409
000010 bf 65 d3 bd d3 05 80 3e 83 ea 5e be 10 7f 1e 3e
       -0.10322141 0.25004444 -0.21769147 0.15478158
000020 aa 07 bc bd 45 cf 94 bd 9a 00 86 3e 92 a4 86 3e
       -0.09181149 -0.07266096 0.26172334 0.26297432
000030 b2 e1 48 3e 86 44 b5 3e 79 ce a3 be 68 52 80 3e
       0.19617346 0.35403842 -0.31993464 0.2506287
000040 4a 08 9d bc da a2 b2 be 0e 55 af 3e dd 33 3e 3e
       -0.019168992 -0.3488987 0.3424458 0.18574472
000050 b7 bc a3 bd 5d ad 33 bd dd 29 b8 3e 36 81 92 3d
       -0.07994979 -0.043866504 0.3596944 0.07153551

weight_ih_l1 f4 [24, 8]
000000 af 7c 32 be 7a 80 1c be 92 a5 1c bd b6 4a 7c 3d
       -0.17430376 -0.15283385 -0.038243838 0.061594687
000010 85 d7 4f 3e a8 35 8f be 67 5f 76 be 7d d8 06 be
       0.20297058 -0.27970624 -0.2405983 -0.13168521
000020 b5 e6 c2 3e fb ef 30 be cd 56 a9 be 1c 90 78 3e
       0.3806664 -0.17279045 -0.33074036 0.24273723
000030 96 d7 57 be 7c f0 36 be 6a 75 87 3e 84 9c 1b be
       -0.21078333 -0.17865175 0.26456767 -0.15196425
000040 5e ea 8d bb b6 50 88 bd ec 5c 63 be 7f 74 28 be
       -0.0043309173 -0.066560194 -0.22203416 -0.1645069
000050 59 dc ec 3d eb 74 03 bd 15 ff ac be 2b ba a2 be
       0.115654655 -0.032093924 -0.33788362 -0.3178266
000060 38 ce ae bd 7c 23 cf bc 76 1f 2d be cd 94 36 3e
       -0.08535427 -0.025285475 -0.16906533 0.178302
000070 82 13 3e be 9d 1b c9 3d f8 7f 44 be 2e 27 f5 bc
       -0.18562129 0.0981972 -0.19189441 -0.029925909
000080 99 ef 97 be 23 8f 86 be 5b 08 73 3d f5 c8 33 be
       -0.29674986 -0.2628108 0.05933414 -0.17557128
000090 e8 4e ee bd c3 8c 30 bd 63 8d fe bd 60 da 50 3e
       -0.11636144 -0.04310299 -0.12429311 0.20395803
0000a0 ce 18 84 be 30 ea a9 3e 9f 17 96 be cb 54 9d 3e
       -0.25800174 0.33186483 -0.29314896 0.30728754
0000b0 62 56 58 bc 81 7e 8c 3e 70 3e cf bd 25 17 8d be
       -0.013204189 0.27440265 -0.10119331 -0.2755672
0000c0 98 1a 91 3e df b1 51 be 19 42 9d be b7 2b 02 bd
       0.28340602 -0.20478009 -0.3071449 -0.03177997
0000d0 11 33 d1 3d 0f 7e 85 be 9e dd 28 3e 0f 55 13 be
       0.10214818 -0.26072738 0.1649079 -0.14387916
0000e0 8e 8c fc 3d e4 76 0d 3e 85 4e 0c 3e 6e 9d 94 be
       0.12331496 0.13814884 0.13701828 -0.2902636
0000f0 49 e7 19 be 73 0c 77 3e c0 21 88 3d 7f b9 1d be
       -0.15029635 0.24125843 0.06647062 -0.15402792
000100 75 01 1c 3e 8a 01 8a be d4 59 58 be f5 04 41 be
       0.15234931 -0.269543 -0.21128017 -0.18849547
000110 f7 44 1d 3e c5 6b 0b be 04 3d 8e bb 84 7a 2a 3d
       0.15358339 -0.1361533 -0.0043407697 0.041620746
000120 bf 23 fc 3b 0a 7c 9f bd 09 40 a5 3e 2d fd ba bd
       0.007694691 -0.077873304 0.32275417 -0.09130321
000130 67 5e af be 78 d3 ab 3e 69 7e 90 be 92 69 96 3e
       -0.3425171 0.33559775 -0.28221443 0.2937742
000140 80 db 2e bd f0 41 ce 3c df 36 8d 3c 55 d4 f7 bc
       -0.0426898 0.025177926 0.017238079 -0.030252615
000150 52 f2 57 be 63 0f 33 be 5f 45 c7 bc 80 5e a4 3d
       -0.21088532 -0.17486338 -0.02432507 0.08025837
000160 95 64 07 3e aa ec 59 be 3d b3 75 3e 66 74 20 be
       0.13221963 -0.21281686 0.23994155 -0.15669402
000170 35 39 c4 bb 2f 1c 94 3d 6d c0 23 3d 68 cf 67 3e
       -0.005988265 0.07231938 0.039978433 0.22637713
000180 fb 8f a3 be 18 7e 31 3e 2c 9f 35 be 99 e8 3b bc
       -0.31945786 0.17333257 -0.177365 -0.01146903
000190 d0 73 2d 3e f2 8d 60 be 36 b8 37 3e 9f b6 9c be
       0.1693871 -0.21929148 0.17941365 -0.3060808
0001a0 a5 e2 a7 3e 3e 64 45 3e 8a b0 88 3e b1 f8 0c 3e
       0.32790104 0.1927652 0.2669719 0.13766743
0001b0 0b 00 4b 3e 8e e1 44 be da 21 f5 3d 9a da b2 be
       0.19824235 -0.19226667 0.11969347 -0.34932405
0001c0 e9 6e 22 bd 5f fe be bd a1 a8 61 bd f5 a8 d4 3c
       -0.039656553 -0.09325861 -0.055092458 0.025959471
0001d0 d2 40 a2 3e b9 99 43 3e 07 45 75 be 93 3e 47 3e
       0.3169008 0.1910161 -0.23952113 0.19457464
0001e0 4f 8e b2 3e b6 fb 9b be 30 c6 98 3e 68 a3 4a be
       0.34874198 -0.30465478 0.29838705 -0.19788897
0001f0 b6 b7 06 be 9a a1 a4 3c 1a 5c 56 be 4d 67 7f 3e
       -0.13156018 0.020096589 -0.20933571 0.2494175
000200 e1 32 88 3c 11 c9 4d be 61 0b 6f 3e fe d1 5d 3e
       0.016625823 -0.20096232 0.23344184 0.21662137
000210 23 e3 89 3e 37 89 c6 3d 44 27 ae 3e c1 28 96 3e
       0.26931104 0.096941404 0.34014332 0.29327968
000220 c5 b4 ea bd c1 cf 8b be 63 05 ce bd ff c1 ea bd
       -0.1146026 -0.2730694 -0.10059621 -0.11462783
000230 5f 69 bd bd c2 e5 5c be c5 e4 cd bd ae d7 93 be
       -0.092486136 -0.2157202 -0.100534 -0.28875488
000240 fe e3 8f 3e a5 10 91 3d 72 c1 e1 3d 71 54 32 3e
       0.28103632 0.07083253 0.11023225 0.17415024
000250 d1 2a a8 bc ea 4b 2c be b4 55 c2 3d 1b fd 99 bd
       -0.020528229 -0.16825834 0.09489003 -0.07518979
000260 2f 21 5a be b2 e7 25 3e fc 46 97 3e 6f 1c ab 3d
       -0.21301721 0.16201666 0.29546344 0.08355033
000270 45 27 7f bd 63 9f 9e 3e b7 df 40 3e bb 63 84 be
       -0.06229331 0.30980977 0.1883534 -0.25857338
000280 ab 34 d2 3d f8 35 80 3d 09 6b db 3d 0e ff 46 3e
       0.10263952 0.06260294 0.10713775 0.19433233
000290 27 97 a3 bd ba d7 9f 3d 0d 31 9e 3e 7f 31 c7 3e
       -0.079878144 0.078048185 0.30896798 0.3890495
0002a0 d0 a8 db 3c 20 34 0c 3e 12 c7 97 3e e1 b8 7e be
       0.026813895 0.13691759 0.29644066 -0.24875213
0002b0 d5 e2 2e be a6 3b 4c 3e 26 42 89 3e 4d 60 b6 3e
       -0.17078717 0.19944629 0.2680828 0.35620347
0002c0 10 a4 64 be f3 51 3e be 7c c1 eb bd ef ca 32 bd
       -0.2232821 -0.18585949 -0.115115136 -0.043650564
0002d0 85 46 5e be 6f 6a 7a 3d 99 7b 8b be 3d da c3 be
       -0.21706589 0.06113666 -0.27242735 -0.3825244
0002e0 26 af a0 be ea 2e 0a be 20 83 58 3c 33 4c 11 3d
       -0.31383628 -0.13494459 0.013214856 0.03547306
0002f0 e9 c4 a7 bc fd 95 9c be be a3 ac be 33 48 b5 3e
       -0.020479636 -0.30583182 -0.33718675 0.35406646

weight_hh_l1 f4 [24, 8]
000000 50 69 5d 3c b9 5a b6 3e 40 c9 2f 3e 0e 2d 13 3e
       0.013513878 0.3561609 0.17166615 0.14372656
000010 66 f2 1a 3e c8 c9 e1 3d ca bc 4d 3e d9 ab 88 be
       0.1513153 0.11024815 0.20091549 -0.2669361
000020 8b 3f 4a be 75 8e c9 bd 84 40 4b bc 50 a2 ad be
       -0.19750802 -0.09841625 -0.012405518 -0.33912897
000030 e3 84 c0 3e 3c 8f 93 be 87 c8 82 be f4 7e fb bd
       0.37601385 -0.28820217 -0.25543615 -0.12280074
000040 01 48 a3 3e 38 c4 78 be c9 c9 ba bc 34 80 bc bd
       0.31890872 -0.24293602 -0.022801297 -0.0920414
000050 42 2d 97 be 2a 6b 56 be 28 37 45 be 15 92 0d bc
       -0.29526716 -0.20939317 -0.19259322 -0.008640786
000060 30 8a 14 3e 78 89 2e 3e 10 63 9f 3e 10 46 92 3d
       0.1450584 0.17044628 0.31130266 0.071422696
000070 7f 29 13 be 3c 73 8d 3d 3b 73 90 3e 76 da 83 be
       -0.14371298 0.06906745 0.28212914 -0.2575261
000080 53 40 a4 3e 20 89 23 bd b2 16 a2 3d 6c fe 2c be
       0.32080325 -0.039925694 0.07914485 -0.16893929
000090 21 ae 7b 3d 26 c5 76 3e df 58 f3 bc ac 5b 82 be
       0.06144536 0.24098644 -0.029705463 -0.25460565
0000a0 f3 a5 bb bb de 66 86 be 9a 12 10 3e 12 0b 77 be
       -0.00572657 -0.26250356 0.14069596 -0.24125317
0000b0 5e 0f 9f be 5f c9 c2 3d d1 62 7e 3e 51 3d 4f 3e
       -0.31066412 0.09511065 0.24842383 0.20238234
0000c0 e5 6c 78 3d 17 bc 31 3d b5 c8 7b bd df 47 55 bd
       0.060650725 0.043392267 -0.061470706 -0.052070495
0000d0 90 ca 1c be 83 51 4f 3e ea 9e 81 bd d7 4a a8 bd
       -0.15311646 0.20245938 -0.063291386 -0.082173996
0000e0 4c 1b 37 3e 1e 2f 97 3e a1 df 3f 3e c5 2c 37 be
       0.17881507 0.29528135 0.18737651 -0.17888172
0000f0 d3 23 b9 3e 3d fc 81 be 85 bd 50 3e b4 39 06 be
       0.36160144 -0.25387755 0.20384796 -0.1310795
000100 de 39 97 be 7f b8 a1 be 73 12 6b bb dc 7a ae 3e
       -0.29536337 -0.31586072 -0.003586915 0.3407811
000110 c3 21 ea 3d 0c 0b 9a be 32 c7 68 3e 54 0c 8c 3e
       0.11432221 -0.30086553 0.22732237 0.27353156
000120 b2 ac 34 bd 85 ce 8f be 39 a2 a0 3e 5d 22 17 3d
       -0.044110008 -0.2808725 0.31373766 0.036898006
000130 95 e9 95 be ad 47 1c be b8 f2 05 3e ac 44 a0 3e
       -0.2927977 -0.15261717 0.13080871 0.31302392
000140 19 fe 1f 3e d1 85 99 be b2 e0 da bd 5d ee a7 3e
       0.15624274 -0.29984906 -0.106873885 0.32799044
000150 87 81 a8 bd 7a c8 a7 3e e7 94 33 3e ee 3c a2 3e
       -0.082278304 0.3277014 0.1753727 0.3168711
000160 66 b5 b4 ba 26 81 2d be e6 04 b6 be 7c c2 38 bc
       -0.0013786971 -0.16943797 -0.35550612 -0.011276837
000170 88 2d 36 3c 67 c5 89 3e a9 7c 4c 3e 2b 25 46 3e
       0.011119254 0.2690842 0.19969429 0.19350116
000180 60 08 27 3e 0a 33 42 be d1 a7 6b 3e 2c b5 7a 3e
       0.16311789 -0.18964782 0.23013236 0.24483174
000190 a3 1d 1c 3e 96 dd 91 be 9c c9 40 be f1 e6 70 3e
       0.1524568 -0.2848937 -0.18826908 0.23525597
0001a0 73 72 c6 3e e2 e2 41 3e b4 11 93 be 14 a5 8f bc
       0.38759193 0.18934205 -0.28724444 -0.01753477
0001b0 11 22 43 3d 2d 46 e9 3d b7 18 c0 be 3a 75 11 3e
       0.04763991 0.11390338 -0.37518856 0.14204875
0001c0 80 af 00 be 8e 32 37 bd 99 7b 7c be 4a b0 e7 3d
       -0.12566948 -0.044725947 -0.24656524 0.11312921
0001d0 f0 f7 39 3d c1 55 3f 3b 26 0d af 3e b8 76 f0 39
       0.045402467 0.00291954 0.3418972 0.0004586482
0001e0 1a 72 8e 3e 9a ac cc bd 60 9a e0 bd bb 46 82 be
       0.27821428 -0.09993859 -0.10966945 -0.25444588
0001f0 c5 d8 64 3e 8f 04 1b bd 39 87 26 bd dc 71 b5 bd
       0.22348316 -0.037846144 -0.040656302 -0.088596076
000200 fa 4c 80 be 69 40 24 3e 29 5d 9f be a1 55 86 be
       -0.25058728 0.16040196 -0.31125763 -0.26237205
000210 08 e7 0f bd 35 71 76 be 95 02 a5 3d a8 66 63 be
       -0.035132438 -0.24066623 0.08057133 -0.22207129
000220 11 df 70 3e 50 0b 92 be 9b df e1 3d d3 5c 45 be
       0.23522593 -0.28524256 0.110289775 -0.19273691
000230 12 bb 78 3e ab eb 3e be 42 80 3e be 98 bc 45 3e
       0.24290112 -0.18644588 -0.18603614 0.19310224
000240 4a 82 05 3e b7 17 a7 be 86 46 e7 3d 07 71 fd 3d
       0.13037983 -0.3263528 0.11292748 0.12375074
000250 64 51 56 be f3 0a 21 be 53 06 82 3e 4a 34 74 3c
       -0.20929486 -0.15726833 0.2539545 0.014905045
000260 49 d7 ab 3e 35 86 21 be 3a d1 b7 3e 9f a2 fa 3c
       0.33562687 -0.15773852 0.35901815 0.030595122
000270 80 31 26 3d ed 4b 9a 3e ad 64 f0 bd d8 f7 ab 3e
       0.04057455 0.30136052 -0.117379524 0.33587527
000280 5d a9 cf bd 08 e5 4a 3e fd d4 90 be 1f 2c 4a be
       -0.10139725 0.19813931 -0.28287497 -0.19743393
000290 03 8e a9 3e ee 68 e9 bc af ed 83 3e 9b 5c af bd
       0.3311616 -0.028492417 0.25767276 -0.08562585
0002a0 38 a1 02 3d 34 d1 c3 3d 57 29 f8 3d 96 30 61 3e
       0.03189203 0.09561387 0.1211726 0.2199119
0002b0 ab e0 85 be 82 a3 99 be 1d 5d 9a be 06 c7 3a 3c
       -0.2614797 -0.3000756 -0.30149165 0.01139999
0002c0 82 0d 53 be 50 f7 5a be 9f a4 a4 be aa 9e 38 3e
       -0.20610622 -0.21383405 -0.32156846 0.18029276
0002d0 54 52 af be ea 80 91 be 30 12 c0 3e 1b 1d 46 be
       -0.342425 -0.28418666 0.37513876 -0.1934704
0002e0 f6 a2 e4 3d 56 c7 30 bc 49 be 89 3d 01 d4 8a be
       0.11163895 -0.010789713 0.06725747 -0.2711487
0002f0 4b 71 bb 3e a2 df 81 3e 36 ce 83 be f4 87 e8 bd
       0.36609873 0.2536593 -0.25743264 -0.11354056

bias_ih_l1 f4 [24]
000000 ec b9 b2 be db c5 64 bc b8 e8 9a be 5c bc 58 be
       -0.34907472 -0.013963188 -0.30255675 -0.21165603
000010 e4 33 82 be 17 90 95 bd 7c ec 82 be d8 62 38 bd
       -0.25430214 -0.073028736 -0.25571048 -0.04501614
000020 1c ba 1d bc 82 79 5f 3e 6a fe dc bc 5e 76 a1 bc
       -0.009626891 0.21823695 -0.026976783 -0.019709762
000030 6a 2c 6a 3e 0e 59 7b bd 56 74 f6 bc 08 ab 4d 3d
       0.22868505 -0.061364226 -0.03008477 0.050211936
000040 01 2f 84 3c 99 1c 8f 3e 39 eb 5c 3e d6 f7 0a be
       0.016135694 0.27951506 0.21574105 -0.13571104
000050 71 bc be 3e ef 4b af 3e 49 d2 28 be b6 a8 73 3d
       0.37253144 0.3423762 -0.16486467 0.059487067

bias_hh_l1 f4 [24]
000000 47 82 e1 bd 95 35 91 bc 8f 8e 38 3e 68 6f b1 be
       -0.110111766 -0.017725745 0.18023132 -0.3465531
000010 df 0d 9b 3e fe ae 04 be 13 c2 9b 3e ee 80 9f be
       0.3028402 -0.12957379 0.30421504 -0.31153053
000020 0a b3 84 3b 61 12 e4 bc 06 bc 94 3d 6b c6 96 bd
       0.0040496634 -0.027840795 0.07262425 -0.07362064
000030 f8 d7 9d 3e b2 0e a4 3e 3e 8f d0 bd c3 b2 36 be
       0.30828834 0.32042462 -0.10183571 -0.1784163
000040 4b ea 53 3e a1 d9 55 3d 60 8a b4 3d 3a bf 8d be
       0.20694844 0.0522095 0.088154554 -0.27684957
000050 95 97 ac 3e e1 a8 0a be e0 df 11 be 0c a3 d0 3d
       0.33709398 -0.13540985 -0.14245558 0.10187349

weight f4 [1, 8]
000000 45 43 6b 3d ec 5c a4 3e ee 8f 0d bd 70 0b 77 3e
       0.0574372 0.32102144 -0.03456109 0.24125457
000010 93 3e 46 3d eb 82 b8 3e e8 64 19 be 76 59 00 3e
       0.04839952 0.36037382 -0.14979899 0.12534127
