model/8eebaa32-6514-4790-80e0-d35fab31f536/model.pth (torch, 7302 bytes, 9 tensors)

weight_ih_l0 f4 [24, 9]
0	0xbd8fb322	-0.07016589
1	0x3e810634	0.25200045
2	0x3e6ba2a6	0.23011264
3	0xbe40c3ed	-0.1882474
4	0xbe5ee371	-0.2176645
5	0xbd82de80	-0.06390095
6	0x3bd5525b	0.0065100617
7	0xbe095a1f	-0.13413285
8	0xbea15b36	-0.315149
9	0xbe4e64c9	-0.20155634
10	0xbe0e7081	-0.13910104
11	0x3ebb2fd9	0.36559942
12	0xbdcc92a5	-0.09988908
13	0x3cddc05b	0.027069261
14	0xbd654765	-0.05597629
15	0xbc60090b	-0.013674031
16	0xbe904e77	-0.28184864
17	0xbdf81c1a	-0.12114735
18	0xbe95e93f	-0.29279515
19	0x3e6cab16	0.23112139
20	0xbe9712b7	-0.29506466
21	0xbe268468	-0.16261446
22	0xbe924ab8	-0.2857263
23	0x3db2825a	0.08716269
24	0x3e956029	0.29174927
25	0xbe121d95	-0.14269097
26	0x3c3f9eae	0.011695547
27	0xbe8ef674	-0.27922404
28	0xbe02ba35	-0.12766345
29	0x3ea0b482	0.31387717
30	0x3df82963	0.12117269
31	0xbe66bb95	-0.22532494
32	0xbe858e34	-0.26085055
33	0xbe8217bf	-0.25408742
34	0x3e8b5ef5	0.27220884
35	0x3e0acb84	0.13554198
36	0x3e260527	0.16212903
37	0x3e978302	0.2959214
38	0x3ea8a1d4	0.32935965
39	0x3d854343	0.0650697
40	0x3e5a62c8	0.21326745
41	0x3e1a80aa	0.15088144
42	0x3daff4b4	0.08591595
43	0x3e4e6582	0.2015591
44	0xbdaf1270	-0.085484385
45	0x3e44f2f8	0.1923331
46	0xbe7d0326	-0.24708232
47	0x3da58fbf	0.08084058
48	0xbd2085c8	-0.039190084
49	0xbebae1cb	-0.3650039
50	0x3dfcb885	0.12339882
51	0x3e10f25b	0.14154951
52	0x3e57aa0c	0.21060961
53	0xbe205912	-0.15658978
54	0xbe6e0132	-0.23242643
55	0x3d8a1581	0.06742383
56	0x3e9fe80d	0.31231728
57	0x3e9bea8e	0.3045239
58	0xbe91bc3f	-0.28463933
59	0xbea4f7c0	-0.32220268
60	0xbdd8c32e	-0.105841026
61	0x3db0cde3	0.0863302
62	0x3dbb37a6	0.091414735
63	0xbe030764	-0.12795788
64	0x3c25dee1	0.010123939
65	0x3e17af29	0.14812912
66	0xbe563159	-0.20917262
67	0x3eabea44	0.33577168
68	0x3dcfae8c	0.10140714
69	0x3ec48083	0.38379297
70	0x3dde5935	0.10856859
71	0x3e503cf8	0.20335758
72	0x3d9cc322	0.07654406
73	0x3e1f19fb	0.15537255
74	0xbb9080bd	-0.004409878
75	0x3dbee131	0.093202956
76	0xbe94c0cb	-0.2905334
77	0x3e4c39c4	0.19943911
78	0x3df95f08	0.12176329
79	0xbeacd06e	-0.3375277
80	0xbe724f9d	-0.23663183
81	0x3dd43362	0.10361363
82	0xbd52150a	-0.051289596
83	0xbacfb2d3	-0.001584614
84	0x3e86100a	0.26184112
85	0x3dd13668	0.10215455
86	0x3e3e5675	0.18587668
87	0xbecadfee	-0.3962397
88	0xbe6c160c	-0.23055285
89	0xbe5b57be	-0.2142019
90	0xbe571523	-0.21004157
91	0xbc290b68	-0.010317661
92	0x3e8ea80c	0.27862585
93	0xbe3031f1	-0.17206551
94	0xbe516213	-0.20447569
95	0xbe4efa10	-0.20212579
96	0xbe3feedc	-0.18743461
97	0x3e10c32c	0.14136952
98	0x3e0470db	0.12933676
99	0xbdd92d8c	-0.106043905
100	0x3d926a58	0.0714919
101	0xbdfd56d7	-0.12370079
102	0xbe0d308d	-0.13788052
103	0x3e2d16f7	0.16903292
104	0xbb5fb8ce	-0.0034137252
105	0xbe3e234d	-0.18568154
106	0xbdfe77e1	-0.12425209
107	0xbe7266c8	-0.2367202
108	0x3e2c0f60	0.1680274
109	0x3e9b2e97	0.30308983
110	0x3e02fd8b	0.12792031
111	0x3e5ae8c3	0.21377854
112	0xbe83c310	-0.25734758
113	0xbdc541d2	-0.09631695
114	0xbd531795	-0.05153616
115	0xbe9f76e6	-0.311454
116	0x3dc6ef83	0.09713652
117	0x3d05f137	0.032700744
118	0xbea15c17	-0.3151557
119	0xbd087842	-0.03331781
120	0xbc8913b5	-0.01673303
121	0xbe5cd6ba	-0.21566287
122	0xbd35ba61	-0.044367198
123	0x3e797dfd	0.24364467
124	0x3dc27bec	0.094962925
125	0x3e086398	0.13319242
126	0xbe7baeb2	-0.2457836
127	0xbda4052d	-0.080088
128	0x3dad3dec	0.08459076
129	0x3e22641b	0.158585
130	0x3ea9ff50	0.332026
131	0x3d8a2bee	0.0674666
132	0x3e9bca63	0.30427846
133	0xbcf0d9ea	-0.029400785
134	0x3e18edd6	0.14934477
135	0xbea7648d	-0.32693902
136	0xbde37819	-0.11106891
137	0x3e0f7f23	0.14013343
138	0x3e0bcb70	0.13651824
139	0x3eb29eca	0.3488677
140	0xbdcc3d1c	-0.09972593
141	0x3e66fead	0.22558089
142	0xbe0776dd	-0.13228936
143	0x3dd22558	0.10261029
144	0x3d4a56d7	0.049399223
145	0xbe26abbb	-0.16276447
146	0x3eb389f3	0.35066184
147	0x3eb4cd20	0.35312748
148	0x3e0fbc4d	0.14036675
149	0x3e7e193b	0.24814312
150	0x3eb19b52	0.34688812
151	0x3e134be9	0.14384426
152	0x3c9210a5	0.017830202
153	0x3dad7da6	0.08471231
154	0xbeb63d46	-0.35593623
155	0x3d3a6988	0.0455108
156	0xbc8b4f88	-0.017005697
157	0x3de530f3	0.11190977
158	0xbe8e443f	-0.27786443
159	0xbec13fc1	-0.37743953
160	0xbea5f457	-0.3241298
161	0xbdb47b68	-0.088126004
162	0x3e00e6fc	0.12588114
163	0x3ea268e4	0.3172065
164	0x3d0c7144	0.034287706
165	0x3eadf507	0.33976004
166	0x3e97a8ae	0.2962088
167	0x3d5888ec	0.052864954
168	0x3e0352f0	0.12824607
169	0x3db9c5ca	0.090709284
170	0xbe95c57a	-0.29252225
171	0xbe8f8d86	-0.2803766
172	0xbdaedc08	-0.085380614
173	0x3e961d85	0.29319397
174	0xbe6a8334	-0.22901613
175	0xbd207e90	-0.0391832
176	0x3c73407b	0.014846916
177	0x3e3594ed	0.17732592
178	0xbe179164	-0.14801556
179	0x3e6b3164	0.2296806
180	0x3e484a7b	0.19559662
181	0xbe8f63de	-0.2800588
182	0x3db64e92	0.08901705
183	0x3e96d3fc	0.29458606
184	0x3d750049	0.059814725
185	0x3d4eebc3	0.05051781
186	0x3e3cf66d	0.18453379
187	0x3e375d3d	0.17906661
188	0x3d6336c4	0.05547215
189	0xbe162550	-0.14662671
190	0x3d0bb983	0.034112465
191	0x3e6bea09	0.23038496
192	0xbde7509d	-0.11294673
193	0x3e63cbfc	0.22245783
194	0x3e3db1ab	0.18524806
195	0xbca04717	-0.019565148
196	0x3eb9482e	0.3618788
197	0x3cc6c299	0.024262713
198	0x3e8ec849	0.2788718
199	0x3eb5d74b	0.35515818
200	0x3ec276a7	0.3798115
201	0x3e5c6de0	0.21526289
202	0x3e3150e2	0.1731601
203	0xbde78b8f	-0.113059156
204	0xbe4b32a7	-0.19843541
205	0xbdb6236b	-0.08893474
206	0xbe92bd58	-0.28660083
207	0x3e481227	0.19538175
208	0xbc9506aa	-0.018191654
209	0x3e1ec1bb	0.1550359
210	0xbdf64f18	-0.12026805
211	0xbea2e049	-0.3181174
212	0xbc82a97e	-0.01594996
213	0x3ea81159	0.32825735
214	0xbe5ae56a	-0.21376577
215	0xbe8b54ee	-0.27213234

weight_hh_l0 f4 [24, 8]
0	0xbe22d889	-0.15902914
1	0x3e31cfe5	0.17364462
2	0x3d9efaa4	0.0776265
3	0x3d91d46c	0.071205944
4	0xbeab4341	-0.33449748
5	0xbe791a3a	-0.24326411
6	0xbdf014f7	-0.11722749
7	0xbe558ca4	-0.20854431
8	0x3ebb5873	0.3659092
9	0xbebcb238	-0.3685472
10	0xbe9389fd	-0.28816214
11	0xbe7731ec	-0.24140137
12	0x3e90d6b6	0.2828881
13	0xbce0ece8	-0.027456716
14	0xbd83a9d9	-0.0642888
15	0x3e44c74a	0.19216648
16	0x3e3bfe58	0.18358743
17	0x3e0747a1	0.13210918
18	0xbebc1b6c	-0.3673967
19	0xbe802309	-0.2502673
20	0xbd3d78da	-0.04625783
21	0x3d866bca	0.06563528
22	0x3dce9f87	0.10089021
23	0x3e7daf34	0.24773866
24	0x3ea01438	0.31265426
25	0xbe83ec3b	-0.25766167
26	0xbd2334f4	-0.039845422
27	0x3e157c0f	0.14598106
28	0xbdd8f6ec	-0.105939716
29	0x3e38cff7	0.18048082
30	0x3eaa8dad	0.33311215
31	0xbdf97cd2	-0.12182011
32	0xbe050e18	-0.12993658
33	0xbe87523a	-0.2642992
34	0xbe00a505	-0.1256295
35	0xbeafece6	-0.34360427
36	0x3cdadcd5	0.026716629
37	0xbcf561a1	-0.02995378
38	0x3d9a6fee	0.0754088
39	0xbe8bdbc2	-0.273161
40	0x3d93900d	0.0720521
41	0x3bd86ebf	0.006604999
42	0xbe1c1840	-0.15243626
43	0x3e093729	0.13399948
44	0xbeaab2e9	-0.33339623
45	0xbe89e502	-0.26932532
46	0x3da7e640	0.081982136
47	0xbd576dc2	-0.052594908
48	0xbd879e25	-0.066219606
49	0xbd13fe7c	-0.036131367
50	0xbd551196	-0.052018724
51	0x3e4e49fc	0.2014541
52	0xbd65fd39	-0.056149695
53	0xbe8c6150	-0.27417994
54	0x3e981fa4	0.2971164
55	0x3e82d1b8	0.25550628
56	0xbe811004	-0.2520753
57	0xbe32ca14	-0.17459899
58	0xbe03d1ed	-0.12873049
59	0xbe4b16dd	-0.1983294
60	0x3dcfce74	0.101468
61	0x3e9d5a12	0.3073278
62	0xbcaa7e3c	-0.020812146
63	0xbd8d6a12	-0.06904997
64	0x3e817383	0.2528344
65	0x3bc2bc5f	0.0059428657
66	0xbdf02f96	-0.11727826
67	0xbe1cdad5	-0.15317853
68	0xbd5ab9c7	-0.053399827
69	0xbebb871b	-0.36626515
70	0xbe8cf23d	-0.27528563
71	0xbd8a6d54	-0.06759134
72	0xbdb0c8ea	-0.08632071
73	0xbc48f695	-0.012265821
74	0xbde59356	-0.11209743
75	0xbcb65e6f	-0.022261826
76	0x3e481541	0.19539358
77	0xbe049ae3	-0.1294971
78	0xbe99908a	-0.29993087
79	0xbe67416f	-0.22583555
80	0xbe729e77	-0.23693262
81	0xbd05a599	-0.03262863
82	0xbe903976	-0.2816884
83	0xbd2e1d18	-0.042508215
84	0x3e391010	0.18072534
85	0xbe92a939	-0.28644732
86	0xbe02f928	-0.12790358
87	0x3e044a71	0.12919022
88	0xbe8b33e3	-0.27188024
89	0x3e9ad94e	0.30243915
90	0xbcb29fef	-0.021804778
91	0x3e27328f	0.1632788
92	0xbe9d57e6	-0.30731124
93	0x3eac6874	0.3367344
94	0x3e92b761	0.28655532
95	0x3e727180	0.2367611
96	0xbe814a76	-0.25252122
97	0x3e57f99c	0.21091312
98	0x3e96fc54	0.29489386
99	0x3e468a81	0.19388773
100	0xbeb72cff	-0.35776517
101	0xbea9fcd4	-0.33200705
102	0x3da82c12	0.08211531
103	0xbe3b28f6	-0.18277344
104	0x3ea857ca	0.32879478
105	0x3eafb131	0.34314874
106	0xbd361a7d	-0.044458855
107	0x3ea077c6	0.3134138
108	0xbe46cfd4	-0.19415218
109	0x3e9aac57	0.3020961
110	0x3cfde0eb	0.030991038
111	0x3e90d464	0.2828704
112	0x3e3fb938	0.18722999
113	0x3e7027b9	0.23452653
114	0x3dc4f315	0.09616677
115	0x3e7c53b6	0.24641308
116	0xbe2960c8	-0.16540825
117	0xbe99ede2	-0.30064303
118	0xbeb5103a	-0.35363942
119	0xbebdb470	-0.37051725
120	0x3e849306	0.2589342
121	0xbcf3a879	-0.02974342
122	0x3eb00c04	0.34384167
123	0xbd104699	-0.035223577
124	0x3e0cbaae	0.13743088
125	0x3e69614b	0.2279102
126	0x3e1a7cf7	0.15086733
127	0x3e837ce6	0.25681227
128	0x3d871c97	0.0659725
129	0x3e4880b9	0.19580354
130	0x3d25d615	0.040487368
131	0x3e5dd3dc	0.21662849
132	0x3e9dc312	0.3081289
133	0xbe5df723	-0.21676306
134	0x3c73a7f0	0.014871582
135	0xbda91b0f	-0.08257114
136	0x3e48cf4b	0.19610326
137	0xbdc854c9	-0.097817965
138	0xbd46b29d	-0.048510183
139	0x3e6ef569	0.23335804
140	0xbe24bf68	-0.1608864
141	0xbd7a8b23	-0.061167847
142	0xbdb5ee8f	-0.08883392
143	0x3e33f359	0.17573299
144	0xbd9ca5d8	-0.0764882
145	0x3e474df0	0.19463325
146	0x3c0e76be	0.0086953025
147	0xbc721e14	-0.014777679
148	0x3e2d4db1	0.16924168
149	0x3e908de9	0.2823327
150	0xbea5159b	-0.32243046
151	0x3e80f711	0.25188497
152	0xbe85f1cf	-0.26161048
153	0x3e66316c	0.2247979
154	0x3d96bea9	0.07360584
155	0x3e284215	0.16431458
156	0x3e32e7d4	0.17471248
157	0xbd4469b0	-0.047952354
158	0x3e39c19f	0.18140267
159	0xbe538f99	-0.20660247
160	0xbe3e56a4	-0.18587738
161	0xbea94cfe	-0.33066553
162	0x3e39e9fd	0.18155666
163	0xbe2c6384	-0.16834837
164	0xbddfc53f	-0.109262936
165	0x3de2232d	0.110418655
166	0x3ea922a6	0.33034247
167	0x3e7cd511	0.24690653
168	0x3c8da4cc	0.017290495
169	0x3e4a1afb	0.19736855
170	0x3e7144d6	0.23561415
171	0xbe91f630	-0.2850814
172	0xbea866ef	-0.32891032
173	0x3d9a85e3	0.07545068
174	0xbe5be457	-0.21473823
175	0x3e2dc2b9	0.16968812
176	0xbe953886	-0.29144686
177	0xbe5aa570	-0.21352172
178	0x3e8c8bcc	0.27450407
179	0x3d8bf806	0.06834416
180	0x3d463d45	0.048398275
181	0xbe8e1d96	-0.27756947
182	0x3db86632	0.09003867
183	0x3e791bb7	0.24326979
184	0x3e91c5ac	0.28471124
185	0xbdffda4a	-0.12492807
186	0x3eaf3c62	0.34225756
187	0x3e6d3851	0.23166014
188	0x3ca868c2	0.020557765
189	0x3e635e24	0.2220388
190	0x3d70936e	0.05873435
191	0xbe382c94	-0.17985755

bias_ih_l0 f4 [24]
0	0xbd14219a	-0.036164857
1	0xbd2f6c73	-0.042828035
2	0xbe68ff6a	-0.22753683
3	0xbeb956d8	-0.3619907
4	0xbe85e062	-0.26147753
5	0xbe51f2db	-0.20502798
6	0xbe178599	-0.14797057
7	0x3e12bbd7	0.14329468
8	0x3e99b148	0.30018067
9	0xbe2dc150	-0.16968274
10	0x3cd336b9	0.02578293
11	0xbea77c14	-0.32711852
12	0xbe8f1db4	-0.2795235
13	0xbe2a9d68	-0.16661608
14	0xbeaddef4	-0.33959162
15	0xbe03cc6a	-0.12870947
16	0x3e9dccf0	0.30820417
17	0x3e0eba5c	0.13938278
18	0x3e5da5f4	0.21645337
19	0xbd020e86	-0.031752132
20	0xbd397b07	-0.045283344
21	0x3eb6624c	0.3562187
22	0x3da1655a	0.078806594
23	0x3d9299f4	0.071582705

bias_hh_l0 f4 [24]
0	0x3e2e1e36	0.17003712
1	0x3ebb21ea	0.36549312
2	0x3e644e94	0.222956
3	0x3dda77f7	0.10667413
4	0x3e0f5929	0.13998856
5	0xbdbb63b0	-0.09149873
6	0xbceaf626	-0.028681826
7	0xbcb8dd8e	-0.022566583
8	0xbe1001b5	-0.14063151
9	0xbe02d486	-0.12776384
10	0x3c953c7e	0.018217321
11	0xbeaa99af	-0.33320376
12	0x3e5214fc	0.20515817
13	0xbe9545da	-0.29154855
14	0x3e72850b	0.23683564
15	0xbdb5abcb	-0.088706575
16	0xbd20627c	-0.039156422
17	0xbe6d9422	-0.2320104
18	0xbe20a37b	-0.15687363
19	0xbda8d3e2	-0.082435384
20	0x3eb542b4	0.35402453
21	0x3e42d5b2	0.19026831
22	0xbea33360	-0.31875134
23	0xbe37904e	-0.17926142

weight_ih_l1 f4 [24, 8]
0	0xbe38e9a7	-0.18057881
1	0xbcec636c	-0.028856002
2	0x3ddc0fbe	0.1074519
3	0x3e022a1a	0.12711373
4	0x3e34a402	0.17640689
5	0xbe6900ad	-0.22754164
6	0xbe5ab350	-0.21357465
7	0x3e2d754a	0.16939273
8	0x3e7a0723	0.24416785
9	0xbe1c70ea	-0.15277448
10	0x3eb06ae6	0.34456557
11	0x3e6e2452	0.23256043
12	0x3d8f1a6a	0.0698746
13	0xbc744e4b	-0.014911245
14	0x3dd3587c	0.103196114
15	0xbead6676	-0.33867234
16	0xbe859fb2	-0.260984
17	0xbdd06b15	-0.10176674
18	0x3d6c2188	0.057649165
19	0xbe506fd8	-0.20355165
20	0x3d2956fe	0.041342728
21	0xbde18f7f	-0.11013698
22	0xbe93a9ee	-0.28840584
23	0x3e709c5b	0.23497145
24	0x3c144cdd	0.009051529
25	0x3d0ee368	0.03488484
26	0xbdc4b2ae	-0.09604393
27	0x3e0db611	0.13838984
28	0xbe9e827e	-0.30958933
29	0xbe70e2ed	-0.23524065
30	0xbd493ce8	-0.04913035
31	0xbe83dba6	-0.25753516
32	0x3e6b6aec	0.22990006
33	0x3d549da9	0.05190817
34	0x3d78e987	0.060769584
35	0xbe610441	-0.21974279
36	0xbdc5fc26	-0.09667234
37	0xbe092ef0	-0.13396811
38	0xbd505166	-0.050858878
39	0x3dbb8c11	0.09157575
40	0xbe16ba5a	-0.14719525
41	0xbdb4427c	-0.088017434
42	0xbeb474f8	-0.3524549
43	0x3d698589	0.057012115
44	0x3e8f94e1	0.28043273
45	0x3e5259f6	0.2054213
46	0x3e829ccd	0.25510255
47	0x3e6ebe98	0.23314893
48	0x3e177df4	0.14794141
49	0x3e56274b	0.20913427
50	0xbe933540	-0.28751564
51	0x3e6e9311	0.23298289
52	0x3e622cb1	0.22087361
53	0xbe414183	-0.18872647
54	0x3e892fc3	0.26794252
55	0xbd12fb97	-0.035884466
56	0x3ea0bfa5	0.31396213
57	0xbe3a1366	-0.18171462
58	0xbd93501c	-0.07193014
59	0xbc927d03	-0.017881876
60	0xbdad080b	-0.084488
61	0xbe36a112	-0.17834881
62	0x3ec53f79	0.38524988
63	0x3d28d00e	0.04121404
64	0xbea79bc0	-0.32736015
65	0xbe4050c5	-0.18780811
66	0x3e68100c	0.22662371
67	0x3d13d3c3	0.036090624
68	0xbe8ceae1	-0.27522948
69	0xbe09c752	-0.13454941
70	0x3ede0cf1	0.43369249
71	0x3e082cfc	0.1329841
72	0xbd124094	-0.035706118
73	0xbe6bfaa8	-0.23044837
74	0xbe19b171	-0.15009095
75	0xbe7102a4	-0.23536164
76	0xb88a0077	-6.5804394e-05
77	0x3e9eeca4	0.31039917
78	0x3d8b616c	0.06805691
79	0xbe150dd3	-0.14556055
80	0x3e680f03	0.22661977
81	0xbe49ee04	-0.19719702
82	0xbe0fd7b9	-0.14047135
83	0xbdc5c3e3	-0.09656503
84	0x3dd486e7	0.10377293
85	0xbdc6abdf	-0.097007506
86	0xbe811b7d	-0.25216284
87	0x3de83ada	0.1133935
88	0x3eb2b311	0.34902242
89	0x3e1f7d12	0.15575054
90	0x3ebcdaf9	0.36885813
91	0x3ea2ca04	0.3179475
92	0x3dfe0310	0.12402928
93	0xbe612e45	-0.21990307
94	0xbe504d72	-0.20342043
95	0x3dbbc563	0.09168508
96	0x3e18d3e5	0.14924581
97	0xbde39e25	-0.11114148
98	0xbd256ec9	-0.040388856
99	0x3eafe70a	0.34355956
100	0x3e3f19cf	0.18662189
101	0xbe3170e3	-0.17328219
102	0xbd01b3a5	-0.031665463
103	0xbddd4539	-0.10804219
104	0x3cf7d522	0.030252997
105	0xbe9b1f65	-0.3029739
106	0xbe4faf38	-0.20281684
107	0xbe20be02	-0.15697482
108	0xbec2ff91	-0.38085607
109	0x3d134018	0.035949796
110	0x3ea40d01	0.3204117
111	0x3e884ddc	0.26621902
112	0xbe01489f	-0.12625359
113	0x3d8a9fe5	0.06768779
114	0x3d993730	0.07481229
115	0xbe6b591d	-0.22983213
116	0xbe2fb058	-0.17157114
117	0x3e01cd17	0.12675892
118	0xbe3d6eb6	-0.18499264
119	0x3eac71c0	0.33680534
120	0x3e516293	0.2044776
121	0xbdab0e03	-0.08352282
122	0xbd907096	-0.07052724
123	0xbe719c3f	-0.2359476
124	0xbd796255	-0.060884792
125	0x3e08b0ed	0.13348742
126	0xbdd75334	-0.105139166
127	0x3e9f8881	0.31158832
128	0xbe9868d5	-0.2976748
129	0x3ebbbc1e	0.3666696
130	0xbeca7f5f	-0.395503
131	0xbd99cf76	-0.07510273
132	0xbe6be3f3	-0.23036174
133	0x3e67fa02	0.22653964
134	0xbe2947eb	-0.16531341
135	0xbe9eb942	-0.31000715
136	0xbe54e4f0	-0.20790458
137	0x3eaa2fc1	0.33239558
138	0xbe9929ad	-0.2991461
139	0xbe8e8aad	-0.27840176
140	0xbe13217a	-0.14368239
141	0x3d7db43e	0.06193947
142	0xbc9651aa	-0.018349487
143	0xbe7fb23e	-0.24970338
144	0xbec11cd6	-0.37717313
145	0xbe8394f3	-0.25699577
146	0xbec0371d	-0.37542048
147	0xbe5f9fdc	-0.21838325
148	0xbe929fc9	-0.2863753
149	0xbe38e2d9	-0.18055286
150	0xbeb2e89d	-0.34943095
151	0xbaa09790	-0.00122522
152	0xbda1d7d2	-0.079024926
153	0xbd645b27	-0.055750992
154	0x3d426cb4	0.04746695
155	0xbe9711e4	-0.29505837
156	0x3e9288d6	0.28620023
157	0xbda0900d	-0.078399755
158	0xbe673167	-0.22577439
159	0x3e63c096	0.22241434
160	0xbbec10e2	-0.007204161
161	0xbe25180c	-0.16122454
162	0xbc7239f0	-0.014784321
163	0x3ec3deed	0.38256016
164	0xbc83346a	-0.016016204
165	0xbe89bb96	-0.2690093
166	0x3d7a2e0b	0.061079066
167	0x3dc73b86	0.0972815
168	0x3dd504ab	0.10401281
169	0xbc3d81cb	-0.01156659
170	0x3d7a82e0	0.06115997
171	0x3e3d8139	0.18506326
172	0xbe042bec	-0.1290738
173	0xbe2a9b18	-0.16660726
174	0x3d43c0bd	0.04779123
175	0xbe8f76ae	-0.28020233
176	0x3e792581	0.24330713
177	0x3e93b741	0.2885075
178	0xbe8eabcb	-0.27865443
179	0xbde43488	-0.11142832
180	0x3cf089fb	0.02936267
181	0x3e583b7c	0.21116441
182	0xbdbadd3f	-0.091242306
183	0x3d970214	0.07373443
184	0xbdfa8666	-0.12232666
185	0x3e2f16e2	0.17098573
186	0x3e8b5592	0.27213722
187	0x3e2d7fd1	0.1694329
188	0x3e4eb5b5	0.20186503
189	0xbdebed78	-0.11519903
190	0xbe44f85b	-0.19235365
191	0x3eb8f699	0.3612564

weight_hh_l1 f4 [24, 8]
0	0xbeaafb54	-0.33394873
1	0xbe0e0529	-0.13869156
2	0x3e7bcdd2	0.24590233
3	0x3c6d80a3	0.014496001
4	0x3d5a400f	0.053283747
5	0x3c980ed0	0.01856175
6	0xbde7812e	-0.11303936
7	0x3da6ca7a	0.08144088
8	0xbdf4925d	-0.11941979
9	0x3da66036	0.081238195
10	0xbecb0fd7	-0.39660522
11	0x3d86f98d	0.06590567
12	0xbecc05e0	-0.39848232
13	0xbdd4458d	-0.10364828
14	0x3eaa8831	0.3330703
15	0xbe55287c	-0.20816225
16	0xbe78c31b	-0.24293177
17	0xbe6f1f99	-0.23351897
18	0xbd2d8088	-0.042358905
19	0x3e681695	0.22664864
20	0xbe68ba1a	-0.22727242
21	0x3d8e553a	0.069498494
22	0x3e9491b1	0.29017404
23	0xbe63418d	-0.22192974
24	0xbe0d1acd	-0.13779755
25	0x3d8c8f5a	0.0686328
26	0xbe8bb76d	-0.2728838
27	0xbe48e83f	-0.19619845
28	0xbdd7aad8	-0.10530633
29	0x3e3204c4	0.1738463
30	0xbe2763dd	-0.16346689
31	0xbe4e1e68	-0.20128787
32	0x3e17c0e6	0.14819679
33	0x3e3f7f9f	0.18701027
34	0xbc2be629	-0.010491886
35	0xbd929cb9	-0.07158799
36	0x3e8a1735	0.2697083
37	0x3e2301d0	0.1591866
38	0x3c46c199	0.012131118
39	0x3ea62e50	0.3245721
40	0xbe83913f	-0.2569675
41	0xbe976b1b	-0.29573902
42	0x3e4f4ee7	0.20244943
43	0x3d810025	0.06298856
44	0xbe447ca7	-0.19188176
45	0x3d40bf7d	0.047057617
46	0xbda6cdc8	-0.081447184
47	0xbd505135	-0.050858695
48	0x3e63662f	0.22206949
49	0x3e13e0d8	0.1444124
50	0xbc34be9e	-0.011031775
51	0xbe9cb890	-0.3060956
52	0xbe5e6798	-0.21719205
53	0xbe8d78fe	-0.27631372
54	0x3e106777	0.14101969
55	0x3d69348b	0.056934875
56	0xbe82cb5b	-0.25545773
57	0x3e483eb3	0.19555168
58	0xbd1c01a2	-0.038087495
59	0xbe3611f9	-0.17780294
60	0x3dde5540	0.10856104
61	0x3e826739	0.25469378
62	0xbe99f02b	-0.30066046
63	0xbed09583	-0.40739068
64	0xbdf9c573	-0.121958636
65	0x3e631d1f	0.22179078
66	0x3e17a78b	0.14810006
67	0x3eb9e98a	0.3631099
68	0xbd80e13a	-0.062929586
69	0xbea406f9	-0.3203657
70	0xbe5dc736	-0.21658024
71	0xbd5d373f	-0.054007765
72	0xbebc13c0	-0.36733818
73	0xbea6e22c	-0.3259443
74	0xbd7ddff2	-0.06198115
75	0x3e197e03	0.14989476
76	0x3e4e9fd1	0.20178153
77	0xbed5ee7c	-0.41783512
78	0xbe8051f4	-0.25062525
79	0x3dda68d8	0.106645286
80	0xbea8557a	-0.32877713
81	0xbe95b2b6	-0.29237908
82	0xbd89f0bf	-0.06735372
83	0xbd381280	-0.044939518
84	0x3e08325e	0.13300464
85	0xbcfb4bbf	-0.030675767
86	0xbe146eee	-0.14495441
87	0x3dd63965	0.10460166
88	0x3dda5716	0.106611416
89	0x3e399cbd	0.18126197
90	0xbea74142	-0.32666975
91	0x3e140695	0.14455636
92	0xbd1124d4	-0.035435513
93	0xbe0521ec	-0.13001221
94	0xbd4f5c46	-0.05062511
95	0xbeb52d0d	-0.35385934
96	0x3e843b12	0.25826317
97	0xbe98f9a2	-0.29877955
98	0xbd813339	-0.06308598
99	0xbe897be6	-0.2685234
100	0xb9a04abb	-0.00030573257
101	0xbe526a32	-0.20548323
102	0xbd529a9d	-0.051416982
103	0xbe13c87e	-0.1443195
104	0x3db392c2	0.08768226
105	0x3e81ad17	0.2532737
106	0x3d605350	0.054766953
107	0xbe4d60e5	-0.20056494
108	0x3e54bb6b	0.2077462
109	0xbe863758	-0.262141
110	0xbd67c9f7	-0.056589093
111	0xbe87eeb9	-0.26549318
112	0x3d3abf40	0.045592546
113	0xbe644f5e	-0.22295901
114	0x3e8c309d	0.2738084
115	0x3eca1f1c	0.3947686
116	0xbd37393f	-0.04473233
117	0x3d854679	0.06507582
118	0xbdaff07b	-0.0859079
119	0x3e9f458d	0.3110775
120	0xbe440ea6	-0.19146213
121	0xbe5d53bc	-0.21613973
122	0xbe8117bc	-0.2521342
123	0x3db62058	0.08892888
124	0x3e89893b	0.2686251
125	0x3e84c21e	0.2592935
126	0x3e06a982	0.131506
127	0xbeae65fa	-0.34062177
128	0x3e2a778e	0.16647169
129	0x3e57c72e	0.21072075
130	0xbdb39c25	-0.087700166
131	0x3ea9be85	0.33153167
132	0x3ea1b51b	0.31583485
133	0x3e7b77b5	0.24557383
134	0x3e9b4853	0.30328616
135	0x3e6cc985	0.23123749
136	0x3e23c882	0.15994456
137	0x3ea025a6	0.31278723
138	0xbe0ad218	-0.13556707
139	0xbbc1a263	-0.0059092506
140	0x3e502de6	0.20330009
141	0xbe6fcd28	-0.23418105
142	0xbe7c44b9	-0.2463559
143	0xbe017804	-0.12643439
144	0x3c2301cc	0.009949159
145	0x3e8c3269	0.2738221
146	0x3ccad96d	0.02476188
147	0x3eb9f8c2	0.363226
148	0xbe05e2b0	-0.13074756
149	0x3e608c69	0.21928562
150	0x3da5c871	0.08094872
151	0x3e4f5ec1	0.2025099
152	0xbdf7dc5f	-0.12102579
153	0x3ea6b114	0.32556975
154	0x3d71b9da	0.059015132
155	0xbea41597	-0.32047722
156	0xbe94513f	-0.28968236
157	0xbe8abe53	-0.2709833
158	0xbea0341d	-0.3128976
159	0x39835ee3	0.00025056963
160	0xbd6827f7	-0.05667874
161	0xbea4712f	-0.32117602
162	0x3e15df5e	0.14635989
163	0x3ea5902b	0.32336554
164	0xbe41a71a	-0.189114
165	0x3da6b53a	0.08140035
166	0x3e3a7774	0.1820963
167	0xbe5445b6	-0.20729718
168	0x3e9c6683	0.3054696
169	0xbe76d716	-0.24105486
170	0xbe04e982	-0.12979701
171	0xbdf53ed6	-0.11974876
172	0x3e88f0d0	0.26746225
173	0xbe90e225	-0.28297535
174	0x3e3878f0	0.18014884
175	0x3d99954b	0.074991785
176	0xbe32d34a	-0.17463413
177	0x3e28f3f5	0.16499312
178	0x3e5efd03	0.21776204
179	0x3dc88c0f	0.09792339
180	0xbe10d2d3	-0.14142923
181	0x3e1a41ad	0.15064116
182	0xbe8050eb	-0.25061736
183	0x3e251b45	0.16123684
184	0xbc98487f	-0.018589256
185	0xbd1a1a21	-0.037622575
186	0x3e8a8c8b	0.2706035
187	0x3e7cf614	0.24703246
188	0xbe030bbb	-0.12797444
189	0xbd14feb6	-0.036375724
190	0x3e9cdfdd	0.30639544
191	0x3e5b9d9b	0.2144684

bias_ih_l1 f4 [24]
0	0xbe3d9f10	-0.18517709
1	0x3e5cbc8d	0.21556301
2	0x3e2e2498	0.17006147
3	0x3eb9480c	0.3618778
4	0xbd779aec	-0.06045048
5	0xbd20b513	-0.039235186
6	0xbeab91f3	-0.33509788
7	0xbde72424	-0.1128619
8	0x3df89264	0.12137297
9	0x3e68e011	0.22741725
10	0xbe3595c6	-0.17732915
11	0xbd55758a	-0.052114047
12	0xbdd9f214	-0.10641876
13	0xbe676e61	-0.226007
14	0x3df948d1	0.12172092
15	0xbec7cb87	-0.39022467
16	0x3e5b217d	0.21399494
17	0x3e7cae82	0.24675944
18	0x3dd108fb	0.10206791
19	0xbe81e367	-0.25368807
20	0xbe36d823	-0.17855887
21	0xbdd4a412	-0.103828564
22	0xbe984797	-0.2974212
23	0xbe113d23	-0.14183478

bias_hh_l1 f4 [24]
0	0xbe3dc22f	-0.18531106
1	0x3e5b77e8	0.2143246
2	0xbd67585e	-0.056480758
3	0x3e98cc2a	0.29843265
4	0xbc878c1c	-0.016546302
5	0xbec6d0dd	-0.38831225
6	0xbec10822	-0.37701517
7	0xbd9e56d8	-0.07731408
8	0x3ea44b80	0.32088852
9	0xba19623e	-0.0005851126
10	0x3d1a02c1	0.037600283
11	0x3ea2c8b0	0.31793737
12	0x3a816359	0.0009871527
13	0x3d6e3b81	0.058162216
14	0xbdb84f44	-0.08999494
15	0xbe94d2f8	-0.29067206
16	0xbe9882be	-0.29787248
17	0xbd8a1dd9	-0.06743974
18	0x3e477b69	0.19480671
19	0x3e747a8d	0.23874874
20	0x3d71ea16	0.059061132
21	0x3d53d2ff	0.051714893
22	0x3e8f07b5	0.27935567
23	0xbdfa110d	-0.122102834

weight f4 [1, 8]
0	0xbe63139a	-0.22175446
1	0xbeb45d7a	-0.35227567
2	0xbeafe035	-0.34350744
3	0x3ea0cc40	0.3140583
4	0xbd769078	-0.06019637
5	0xbec6763a	-0.38762075
6	0xbe00a84e	-0.12564203
7	0xbe9dc019	-0.3081062
